data/datademo/demo_vVA_h24_s1696.pt (torch, 23023 bytes, 8 tensors)

fc0.weight f4 [24, 9]
-0.41913852 -0.06237593 -0.15297817 0.034719236 -0.037411835 0.2138381 -0.32785565 0.00092705945
-0.051257644 -0.20783573 0.34839517 -0.6676637 -0.20263161 0.08627474 -0.20947257 0.18037678
-0.2889007 -0.112567104 0.0998696 0.38667133 -0.7208157 -0.31273758 0.23333421 -0.056249663
-0.120192245 0.29636773 -0.32468706 -0.19921498 -0.47109443 -0.036652893 0.20297611 -0.028054137
0.08891494 0.23503381 -0.087254964 0.15576695 0.59936535 -0.20791648 -0.29363126 0.24946235
0.065472834 -0.11429244 -0.3047646 0.03718296 -0.2464833 -0.1805342 0.575873 -0.061953444
-0.19604036 0.111801945 0.20177548 -0.0038639612 0.031475488 0.1814603 -0.34070438 0.47580227
-0.049746536 -0.014953744 -0.30269054 0.12876154 0.461837 -0.083999634 0.4165524 0.2688763
0.17709053 -0.6838278 0.044342034 -0.076196924 -0.13298199 -0.17513935 0.14850706 -0.043869514
0.16247177 -0.112099774 -0.74875265 -0.004044867 0.15342899 -0.17105864 0.21831976 0.12247352
0.18597123 0.5073596 -0.39187786 -0.41221744 0.0675106 -0.044086926 0.13266478 -0.056538623
0.03909169 0.16416742 -0.9901211 0.0512862 -0.16725004 0.23718674 0.045209523 -0.17420724
-0.16232783 0.09789076 -0.20050126 -0.113143474 -0.019881967 -0.8460123 0.2025104 -0.23623566
0.34725028 -0.16173512 -0.043951694 0.13910256 -0.40481475 -0.16297442 0.36053607 0.20293283
-0.06086145 -0.20792325 -0.29958346 0.1539531 -0.13615116 0.51695514 0.06402372 -0.14756404
0.2537014 -0.044473577 -0.178313 0.21677564 -0.0708389 -0.05157375 -0.44970968 -0.21057522
-0.51665753 0.052300327 -0.23244219 -0.15679018 0.22132209 0.019998105 -0.09391818 -0.21739587
0.5042539 -0.05228379 0.24951631 -0.010704679 -0.104545236 -0.022127545 0.20096816 0.02854168
0.48605058 0.4326822 0.10988273 0.1103788 -0.10468065 -0.10435021 -0.050178982 -0.11607153
-0.13013677 0.2622062 -0.039339516 0.58168286 -0.0025370566 -0.06398084 -0.023074647 0.14633255
0.16956846 -0.1739507 0.5025662 0.13039213 0.014619063 -0.14809406 0.215112 -0.17681688
0.3055597 -0.04263819 0.16125219 -0.61549145 -0.17433417 0.18852569 0.005340679 -0.023076322
-0.09896789 -0.11345038 -0.105725 0.14265463 0.53848124 -0.15914303 0.1508275 -0.2345212
-0.38501832 -0.019689329 0.09583378 0.12937003 0.24317311 -0.16291155 -0.31208074 -0.40880254
-0.09022309 0.23049991 -0.010412252 0.17409155 -0.10726811 0.09666234 0.082351096 0.33870715
0.39064854 0.32370633 0.09083558 0.05440806 -0.12086044 0.17085272 -0.06448655 0.44510737
0.3696943 -0.05657117 0.21079098 -0.048283853 0.0715203 -0.21406229 -0.28721225 0.17727484
00000000: 5399 d6be e77d 7fbd 4fa6 1cbe c235 0e3d
00000010: 273d 19bd 60f8 5a3e b2dc a7be e805 733a
00000020: 89f3 51bd e4d2 54be da60 b23e 02ec 2abf
00000030: a97e 4fbe d0b0 b03d fa7f 56be b1b4 383e
00000040: cbea 93be 9589 e6bd 6f88 cc3d c9f9 c53e
00000050: 6187 38bf 241f a0be 2aef 6e3e 0c66 66bd
00000060: 5a27 f6bd 83bd 973e 623d a6be 03ff 4bbe
00000070: 4a33 f1be 5821 16bd f8d8 4f3e cad1 e5bc
00000080: 0919 b63d b4ac 703e bbb2 b2bd 5f81 1f3e
00000090: 0270 193f 0fe8 54be d656 96be 0f73 7f3e
000000a0: 9f16 863d 2812 eabd 1b0a 9cbe 294d 183d
000000b0: 1e66 7cbe f5dd 38be 6a6c 133f e5c2 7dbd
000000c0: cebe 48be 6bf8 e43d 3b9e 4e3e 833a 7dbb
000000d0: 71ec 003d bbd0 393e ce70 aebe 5b9c f33e
000000e0: 06c3 4bbd 8c00 75bc 41fa 9abe 11da 033e
000000f0: e675 ec3e 0008 acbd 5b46 d53e 28aa 893e
00000100: 3857 353e 570f 2fbf fe9f 353d 220d 9cbd
00000110: 6e2c 08be bb57 33be 3c12 183e 85b0 33bd
00000120: 005f 263e 9194 e5bd 41ae 3fbf ce8a 84bb
00000130: 7d1c 1d3e ff29 2fbe 378f 5f3e 66d3 fa3d
00000140: 3e6f 3e3e 52e2 013f 37a4 c8be 2a0e d3be
00000150: ff42 8a3d 7e94 34bd 47d9 073e 0b95 67bd
00000160: 9c1e 203d 811b 283e 9478 7dbf 7a11 523d
00000170: 9843 2bbe 15e1 723e 9f2d 393d 6263 32be
00000180: 4439 26be f37a c83d 3450 4dbe c4b7 e7bd
00000190: 82df a2bc 4394 58bf e35e 4f3e c3e7 71be
000001a0: caca b13e e49d 25be b106 34bd e770 0e3e
000001b0: e143 cfbe c4e2 26be 2f98 b83e a0cd 4f3e
000001c0: db49 79bd d5e9 54be 0163 99be e2a5 1d3e
000001d0: 366b 0bbe 2c57 043f de1e 833d 071b 17be
000001e0: 26e5 813e ed29 36bd af97 36be 6ffa 5d3e
000001f0: fc13 91bd ff3e 53bd 5940 e6be 08a1 57be
00000200: ab43 04bf de38 563d 5305 6ebe 9b8d 20be
00000210: 42a2 623e 11d3 a33c 2d58 c0bd 069d 5ebe
00000220: c916 013f 8727 56bd 3481 7f3e ae62 2fbc
00000230: d01b d6bd d344 b5bc 99ca 4d3e 3ed0 e93c
00000240: 9fdb f83e 8588 dd3e 320a e13d 480e e23d
00000250: cf62 d6bd 90b5 d5bd 7a88 4dbd e9b6 edbd
00000260: 9342 05be e43f 863e 7922 21bd 2be9 143f
00000270: bf44 26bb 6308 83bd 0b07 bdbc 33d8 153e
00000280: 5ba3 2d3e 2220 32be 2ea8 003f 8485 053e
00000290: cb84 6f3c f8a5 17be 5246 5c3e 7c0f 35be
000002a0: 5272 9c3e 62a5 2ebd 4b1f 253e d990 1dbf
000002b0: a884 32be e10c 413e dd00 af3b 8e0a bdbc
000002c0: adaf cabd ac58 e8bd 5986 d8bd 0e14 123e
000002d0: e8d9 093f 64f6 22be 8672 1a3e 5326 70be
000002e0: 1f21 c5be 844b a1bc 8044 c43d 9479 043e
000002f0: 5f02 793e 49d2 26be 0cc9 9fbe 914e d1be
00000300: e2c6 b8bd 2b08 6c3e 2698 2abc 0e45 323e
00000310: 62af dbbd e8f6 c53d b1a7 a83d 066b ad3e
00000320: 1603 c83e d6bc a53e 0108 ba3d fcda 5e3d
00000330: ae85 f7bd 04f4 2e3e 8611 84bd 1de5 e33e
00000340: 9248 bd3e 2cb7 67bd 97d9 573e 4ac5 45bd
00000350: 3c79 923d 2533 5bbe 7c0d 93be 8987 353e

fc0.bias f4 [24]
0.11105289 -0.08848329 -0.18446508 0.20593676 0.07358572 0.28241563 -0.17839147 -0.0037324736
-0.08509642 -0.34775558 -0.35722688 -0.15537079 0.11263937 0.28053463 -0.05377126 -0.092570215
-0.27366653 -0.016702004 0.019545615 -0.4043293 0.18371502 -0.029486889 -0.27143392 -0.0076096808
00000000: b36f e33d ba36 b5bd 6ae4 3cbe 16e1 523e
00000010: 1cb4 963d c898 903e 41ac 36be 849c 74bb
00000020: 0847 aebd 050d b2be 71e6 b6be 8519 1fbe
00000030: 78af e63d 3ca2 8f3e 413f 5cbd 7495 bdbd
00000040: 051e 8cbe a4d2 88bc 201e a03c 4004 cfbe
00000050: ca1f 3c3e 7d8e f1bc 63f9 8abe a15a f9bb

lstm.weight_ih_l0 f4 [96, 24]
-0.095775224 -0.62671775 0.082619235 0.059846867 0.16415459 -0.020979123 0.31983516 0.1188085
0.17094047 -0.15272802 0.08112607 -0.073148236 -0.089495786 0.049792815 0.16115563 0.32050064
0.11081241 0.18739292 0.22445042 -0.38290015 0.25577837 -0.22540966 0.21115127 0.08549996
-0.3889077 -0.45964864 -0.4021272 0.062372535 -0.16116054 -0.14786975 0.18161897 -0.22091557
-0.4155485 -0.30605453 -0.48555842 -0.22741233 -0.0973121 0.34057266 -0.36873943 -0.1327235
0.57526183 0.25658587 0.06467841 -0.09984282 0.119246684 -0.3842664 0.24709468 0.1918267
-0.21148394 -0.24488011 -0.20776425 0.012765729 0.12127709 -0.1510562 -0.37657136 -0.049272753
-0.04505672 0.24978194 -0.45173198 -0.00073385186 -0.17989226 0.31043744 -0.12473608 -0.2854243
0.14101957 0.19393289 0.13057199 -0.44299132 0.17709601 -0.04127392 -0.19075607 -0.04696997
-0.017032895 0.05053273 -0.023625629 -0.07771892 0.065080345 0.01644512 -0.2901344 0.22182573
0.30778092 -0.006693648 -0.49227175 -0.009610161 -0.072516516 0.0010167039 -0.105617054 -0.20177269
-0.27626097 -0.061131295 0.13025892 -0.43197784 0.27106926 0.26782575 -0.11203738 -0.33449176
0.015277602 0.3534859 -0.05320204 0.05093502 0.04655344 0.43483728 -0.06384062 0.008393172
0.049828786 -0.21245368 -0.18090679 -0.022919852 0.26735765 0.24666917 -0.062008284 0.2554704
-0.027616715 -0.30111882 0.07455626 -0.18186334 -0.00085014006 0.07457146 -0.190917 0.27591723
-0.24233654 -0.19331172 -0.095207155 -0.17733453 0.28831023 -0.44243208 -0.089869864 0.17523731
0.19292201 0.18090549 0.067854226 0.049734145 -0.041990645 0.043510918 0.21490678 -0.2946647
0.24502216 0.049581897 0.06681174 -0.100886695 0.068998955 0.022367679 0.016430313 0.12298725
0.071017854 -0.26082587 -0.08354213 -0.29738492 -0.2920679 0.21329325 0.20032732 -0.09491138
-0.2073274 -0.41788572 -0.2329685 -0.5237807 0.18525818 0.038074285 -0.19195952 0.040671583
0.228241 0.34486523 0.166779 0.09440157 0.11272769 -0.330577 0.16096827 0.26777092
-0.34677735 -0.5595962 -0.20421855 0.130213 0.5115448 -0.2557033 -0.16082884 0.16611531
0.20708957 0.068422124 -0.23052283 0.060792223 -0.085363805 0.5048964 -0.05022681 -0.20474121
0.11881841 0.2034735 0.23432681 -0.34203783 0.38946763 0.0011875522 0.06371249 -0.07073565
0.24824944 0.078980915 0.29674008 0.03672157 -0.05683616 -0.17024003 -0.080678456 0.23765811
-0.2604604 0.19586597 0.043122992 0.1801131 -0.015512526 0.028537882 0.2365414 -0.013962708
0.07028036 0.16893105 -0.2180476 0.1278295 0.17326891 0.029524583 -0.07308831 -0.14007364
-0.17784053 -0.04244722 -0.13082442 0.092098236 0.20239116 -0.044758152 0.1190631 0.34206545
0.012413414 0.11376683 -0.19698152 0.11658425 -0.047330238 0.37932104 0.16434139 0.048257805
0.19707845 -0.2924745 0.038676288 -0.35029846 0.25107715 -0.10774903 -0.278332 0.29921997
0.17545326 -0.093804725 -0.21118212 0.042881735 -0.093443274 0.07143873 0.21786545 0.22215964
0.20502703 0.12846608 -0.36042762 0.16792846 -0.0016382317 0.21677679 0.33046225 0.13541335
00000000: cd25 c4bd 9370 20bf 4634 a93d fd21 753d
00000010: 2418 283e 69dc abbc 6fc1 a33e df51 f33d
00000020: 050b 2f3e bc64 1cbe 6d25 a63d bece 95bd
00000030: 9149 b7bd 8df3 4b3d fb05 253e a918 a43e
00000040: 9ef1 e23d eee3 3f3e 55d6 653e 7d0b c4be
00000050: 62f5 823e cad1 66be 0a38 583e 9a1a af3d
00000060: e91e c7be 1157 ebbe 9ee3 cdbe 587a 7f3d
00000070: 4507 25be 2b6b 17be 53fa 393e b137 62be
00000080: c6c2 d4be 2eb3 9cbe 1d9b f8be c7de 68be
00000090: 914b c7bd 8a5f ae3e 6acb bcbe abe8 07be
000000a0: 5c44 133f 395f 833e 1d76 843d 647a ccbd
000000b0: 9b37 f43d 91be c4be 6306 7d3e 386e 443e
000000c0: 3f8f 58be dac1 7abe 27c0 54be 5927 513c
000000d0: 1f60 f83d 7aae 1abe f6cd c0be 3ad2 49bd
000000e0: 658d 38bd d6c6 7f3e 6a49 e7be f75f 40ba
000000f0: ad35 38be a8f1 9e3e a175 ffbd 2223 92be
00000100: 6f67 103e 5896 463e aab4 053e c2cf e2be
00000110: a858 353e d80e 29bd 8f55 43be 9563 40bd
00000120: 9288 8bbc 68fb 4e3d 898a c1bc 192b 9fbd
00000130: d848 853d ebb7 863c 7f8c 94be 4926 633e
00000140: 7695 9d3e 6456 dbbb 0b0b fcbe f073 1dbc
00000150: 8a83 94bd ec42 853a c14d d8bd 809d 4ebe
00000160: 1472 8dbe cf64 7abd 9862 053e 332c ddbe
00000170: 97c9 8a3e 7520 893e db73 e5bd 8142 abbe
00000180: e84e 7a3c 1bfc b43e 62ea 59bd 3da1 503d
00000190: d2ae 3e3d fea2 de3e dfbe 82bd 8483 093c
000001a0: 4519 4c3d 758d 59be a13f 39be 6ac2 bbbc
000001b0: 1ae3 883e d896 7c3e 66fc 7dbd 04cd 823e
000001c0: 733c e2bc 3f2c 9abe f4b0 983d 623a 3abe
000001d0: efdb 5eba ecb8 983d bf7f 43be 0645 8d3e
000001e0: 1227 78be 82f3 45be f8fb c2bd 2f97 35be
000001f0: 669d 933e 7586 e2be b10d b8bd 6971 333e
00000200: 598d 453e 4a3f 393e 28f7 8a3d 08b6 4b3d
00000210: 62fe 2bbd 8138 323d 8610 5c3e 4bde 96be
00000220: 17e7 7a3e 6316 4b3d 98d4 883d af9d cebd
00000230: 534f 8d3d 6c3c b73c dd98 863c bde0 fb3d
00000240: cf71 913d f88a 85be 2318 abbd d642 98be
00000250: ec89 95be 8c69 5a3e 9b22 4d3e e660 c2bd
00000260: a24d 54be 1ef5 d5be 4b8f 6ebe 7e16 06bf
00000270: 52b4 3d3e c8f3 1b3d 0991 44be 3f97 263d
00000280: 02b8 693e 2d92 b03e 1dc8 2a3e 9c55 c13d
00000290: c6dd e63d 6341 a9be ded4 243e 4519 893e
000002a0: cd8c b1be b241 0fbf ab1e 51be 8f56 053e
000002b0: 9af4 023f 8beb 82be 51b0 24be 221a 2a3e
000002c0: 4a0f 543e e620 8c3d 2d0e 6cbe 4401 793d
000002d0: 38d3 aebd e440 013f a1ba 4dbd aea7 51be
000002e0: 1157 f33d 5b5b 503e 5ef3 6f3e 951f afbe
000002f0: 4d68 c73e a4a7 9b3a b27b 823d dadd 90bd
00000300: 1a35 7e3e bfc0 a13d 51ee 973e 5b69 163d
00000310: 09cd 68bd 6753 2ebe bf3a a5bd a65c 733e
00000320: 115b 85be 1791 483e bca1 303d 926f 383e
00000330: 4028 7ebc 47c8 e93c e937 723e d8c3 64bc
00000340: 26ef 8f3d 43fc 2c3e df47 5fbe bde5 023e
00000350: 686d 313e 8add f13c 53af 95bd 776f 0fbe
00000360: d41b 36be 23dd 2dbd d6f6 05be 009e bc3d
00000370: a13f 4f3e 5354 37bd 5bd7 f33d 3423 af3e
00000380: a261 4b3c 95fe e83d 86b5 49be b9c3 ee3d
00000390: 5add 41bd 5e36 c23e 1c49 283e faa9 453d
000003a0: efce 493e 38bf 95be 076b 1e3d 525a b3be
000003b0: 2f8d 803e 86ab dcbd 8881 8ebe 5c33 993e
000003c0: 05aa 333e b11c c0bd 2040 58be c2a4 2f3d
000003d0: 305f bfbd 784e 923d 1f18 5f3e d17d 633e
000003e0: 9bf2 513e 9d8c 033e f889 b8be 70f5 2b3e
000003f0: efb9 d6ba bcfa 5d3e 5932 a93e cca9 0a3e

lstm.weight_hh_l0 f4 [96, 24]
-0.16164811 0.17923152 -0.335088 0.34850347 0.0009408789 -0.26125333 0.16225156 0.21151066
-0.3011759 0.015237185 0.1647932 0.13594146 0.10868669 -0.4361493 -0.094685115 0.18014696
-0.3039499 -0.1255753 -0.17876497 -0.37584522 -0.047673512 -0.3736285 0.14541242 0.24388315
0.1385897 0.037167717 0.26541826 -0.24328913 0.12820484 -0.1152209 0.21138328 -0.295333
0.15195194 -0.18702427 -0.31121722 -0.30608824 0.101838 -0.07046824 -0.1308247 -0.23826826
0.1742114 -0.274565 0.024579406 0.008587668 0.0065976772 0.15338509 -0.025866728 0.009118439
-0.178089 -0.06677943 0.20632234 -0.003141556 0.080474295 -0.62904763 -0.0682104 0.0033923513
0.13901882 -0.23290668 -0.09837846 0.07136374 -0.13271907 -0.12895451 0.04667245 -0.051990446
-0.18124871 -0.1651536 0.1414175 0.09776614 -0.02107255 -0.13479714 -0.04320001 0.049131427
-0.28810742 -0.13122632 0.12282991 -0.040626913 0.3096221 -0.2836706 0.013103182 -0.012270893
-0.29784808 -0.31600228 -0.29018784 0.23051721 0.057140984 -0.5092847 0.15553509 0.036569797
-0.07046655 0.084314086 0.03654415 -0.28160045 -0.065688014 -0.08322351 0.25545278 0.027480718
-0.48880523 -0.13897376 0.2095404 -0.10948172 -0.10167227 0.0023152109 0.31095392 -0.36623755
-0.019218907 -0.15355484 -0.32334 0.008783779 0.084663376 0.088679776 -0.38081935 -0.10491704
0.0164965 0.03543764 -0.21411386 -0.30195153 -0.22056809 0.019701408 0.34602997 -0.25115427
0.030609747 0.4988389 0.54481477 -0.32633626 -0.19539694 -0.40938637 0.63300985 -0.13026556
-0.22733949 0.33361238 0.4058114 -0.11388076 -0.5058314 0.112584695 -0.46832177 0.74634635
0.18127578 0.031406622 -0.4865176 0.034325153 0.106072895 0.03770654 0.32437104 0.1700138
-0.1463566 -0.050337225 0.031150218 -0.26586336 0.4171842 -0.20181794 -0.0025135237 0.17335434
0.059260488 -0.41540998 0.039765358 -0.22029388 -0.28249538 -1.2556982 -0.5865871 -0.39658615
0.037302982 -0.25202185 0.6630055 0.1815752 -0.43340778 0.1635786 -0.27013132 -0.12243586
-0.2910201 -0.09256917 -0.04106019 0.29926834 0.09261448 -0.01112168 -0.21113722 -0.10227695
-0.37572366 -0.13381827 0.046777673 0.3129396 0.29740727 -0.30049288 0.2555726 0.05823239
-0.059864786 0.03904179 -0.26971066 -0.30976933 -0.27154088 0.04111393 -0.09953112 -0.0802959
0.042317748 0.13103685 0.106083095 0.031141782 0.16632561 0.15157394 0.16979925 0.03551345
-0.4792418 -0.21375193 0.44052264 -0.2786881 0.004086277 -0.30000946 0.102552615 0.21638586
-0.64086837 0.13780126 -0.22249238 -0.22981122 0.18512575 0.06630157 -0.028323542 0.46338215
-0.25195163 -0.073552035 -0.20858155 0.26749483 -0.07921955 -0.1750951 0.071745336 0.019204065
-0.26906958 -0.060138013 -0.028665919 0.17438531 0.4586882 -0.34496593 -0.095756106 0.26846918
-0.02020628 0.17819668 -0.23154648 -0.44379252 0.10013379 -0.23974629 0.17928997 -0.18097118
-0.28852266 0.0057221013 0.22988978 0.1478494 -0.4714861 -0.08740368 -0.45808524 0.03012186
0.37661356 -0.038628787 0.0077196746 -0.3053829 -0.12443698 0.05282555 0.45533177 -0.036530487
00000000: 1587 25be 7888 373e a890 abbe 0c6f b23e
00000010: 50a5 763a ffc2 85be 4625 263e 4096 583e
00000020: ba33 9abe 63a5 793c 8cbf 283e 3d34 0b3e
00000030: 2197 de3d f64e dfbe 45ea c1bd 7278 383e
00000040: 529f 9bbe d096 00be 2a0e 37be c96e c0be
00000050: 4d45 43bd 3c4c bfbe fee6 143e 81bc 793e
00000060: 75ea 0d3e 2d3d 183d e7e4 873e c920 79be
00000070: 2148 033e eff8 ebbd dc74 583e e335 97be
00000080: 4a99 1b3e 4a83 3fbe dd57 9fbe 99b7 9cbe
00000090: 7190 d03d a751 90bd e9f6 05be 98fc 73be
000000a0: 7964 323e c993 8cbe c05a c93c 4ab3 0c3c
000000b0: 5431 d83b fb10 1d3e 76e6 d3bc 8165 153c
000000c0: f65c 36be a7c3 88bd 2a46 533e 90e2 4dbb
000000d0: b5cf a43d 4409 21bf e5b1 8bbd 3652 5e3b
000000e0: f35a 0e3e 177f 6ebe a57a c9bd 2727 923d
000000f0: 82e7 07be a70c 04be 9c2b 3f3d eff3 54bd
00000100: 4399 39be 061e 29be c0cf 103e 9d39 c83d
00000110: 57a0 acbc 4308 0abe 7ef2 30bd 093e 493d
00000120: d182 93be 3160 06be 3f8e fb3d 6868 26bd
00000130: ca86 9e3e 463d 91be bbae 563c db0b 49bc
00000140: 8b7f 98be 0dcb a1be 8093 94be b40c 6c3e
00000150: aa0c 6a3d 7b60 02bf 9744 1f3e 36ca 153d
00000160: c450 90bd ddac ac3d 52af 153d ef2d 90be
00000170: 7087 86bd 1671 aabd b5ca 823e 3e1f e13c
00000180: ae44 fabe 234f 0ebe c291 563e f437 e0bd
00000190: 8d39 d0bd cbba 173b 5a35 9f3e 7d83 bbbe
000001a0: f870 9dbc 7b3d 1dbe d28c a5be d7e9 0f3c
000001b0: fe63 ad3d be9d b53d c1fa c2be bfde d6bd
000001c0: ab23 873c 0f27 113d aa40 5bbe 6499 9abe
000001d0: 9adc 61be d964 a13c d72a b13e 4b97 80be
000001e0: 4bc1 fa3c d067 ff3e fb78 0b3f 8c15 a7be
000001f0: 2316 48be 179b d1be ef0c 223f 5664 05be
00000200: afcb 68be 3ecf aa3e 83c6 cf3e 513a e9bd
00000210: 2b7e 01bf ce92 e63d dfc7 efbe 8e10 3f3f
00000220: 5ca0 393e 3ba4 003d d618 f9be 8898 0c3d
00000230: bf3c d93d 2c72 1a3d f613 a63e 1918 2e3e
00000240: 81de 15be 682e 4ebd be2e ff3c 3e1f 88be
00000250: 2b99 d53e 5da9 4ebe eeb9 24bb cd83 313e
00000260: 20bb 723d 9eb0 d4be 00e1 223d b894 61be
00000270: 3ca3 90be b8ba a0bf 922a 16bf 570d cbbe
00000280: 03cb 183d 0209 81be baba 293f d9ee 393e
00000290: a0e7 ddbe 2681 273e a74e 8abe a7bf fabd
000002a0: 9600 95be e894 bdbd bb2e 28bd b339 993e
000002b0: a9ac bd3d b537 36bc 5b34 58be 9476 d1bd
000002c0: da5e c0be a807 09be f299 3f3d 9f39 a03e
000002d0: c445 983e 34da 99be 69da 823e 1685 6e3d
000002e0: c734 75bd 49ea 1f3d 8417 8abe 169a 9ebe
000002f0: 6807 8bbe 1567 283d f9d6 cbbd 2d72 a4bd
00000300: 6055 2d3d 862e 063e 1842 d93d 0d1d ff3c
00000310: 4351 2a3e 3336 1b3e dbdf 2d3e 8d76 113d
00000320: 2e5f f5be c9e1 5abe 2f8c e13e 35b0 8ebe
00000330: 2de6 853b d79a 99be 1b07 d23d 4194 5d3e
00000340: f30f 24bf c61b 0d3e 0bd5 63be a253 6bbe
00000350: 9b91 3d3e 1ec9 873d c606 e8bc 6d40 ed3e
00000360: ceff 80be 73a2 96bd 6796 55be 15f5 883e
00000370: dc3d a2bd 214c 33be 38ef 923d d851 9d3c
00000380: 7dc3 89be 4753 76bd cad4 eabc 1092 323e
00000390: 2ed9 ea3e 609f b0be c71b c4bd cb74 893e
000003a0: a487 a5bc 3179 363e 851a 6dbe c638 e3be
000003b0: f212 cd3d 0d80 75be ca97 373e 8250 39be
000003c0: 3eb9 93be 7780 bb3b 3a68 6b3e d565 173e
000003d0: a066 f1be b300 b3bd 268a eabe 1ec2 f63c
000003e0: 7ed3 c03e 3839 1ebd 53f5 fc3b 265b 9cbe
000003f0: d1d8 febd 9b5f 583d 3f21 e93e fea0 15bd

lstm.bias_ih_l0 f4 [96]
0.17503367 -0.20820759 0.29292643 0.12388794 0.07566649 -0.5025885 0.12427348 0.24394256
-0.15423216 0.22995718 0.45548433 0.010678067 0.110200405 0.009639806 -0.2890695 0.12417105
0.1607364 0.056291867 0.2950718 -0.0768316 0.27246323 0.2886142 0.27050945 0.051537935
-0.003745175 -0.13373597 -0.2028541 0.10918846 -0.14031233 0.33031344 0.34949005 -0.3432129
-0.21474293 0.08088084 0.1311014 0.09140703 -0.012560679 0.11547533 0.13821647 -0.110959284
-0.24939215 0.10782753 -0.04388812 0.40204948 0.104883686 -0.18958913 0.25500125 0.18473603
-0.18371883 -0.21569021 -0.044995926 0.23809946 0.031188903 0.07901311 -0.1332674 -0.17987867
0.22797343 -0.15792933 -0.18736045 0.080728516 0.25785404 -0.16453429 0.19391376 -0.17818421
0.15485965 0.018723113 0.1418309 0.17398162 -0.07702185 -0.09179491 0.15588717 0.0424806
-0.18827574 0.036660463 0.34869003 0.26404628 0.34175846 0.15703835 0.111454844 0.16412239
-0.044599175 0.16337505 0.17375845 0.27497703 0.4418876 0.16859235 0.26171193 -0.023524545
0.07424157 -0.10132193 0.03204303 0.18967229 -0.007789596 0.17045619 0.19296426 -0.031076524
00000000: 073c 333e 5f34 55be 74fa 953e f6b8 fd3d
00000010: 08f7 9a3d a4a9 00bf 1883 fe3d 14cc 793e
00000020: 09ef 1dbe e579 6b3e 3e35 e93e 0ff3 2e3c
00000030: c0b0 e13d 47f0 1d3c eb00 94be 644d fe3d
00000040: 1598 243e 4d92 663d a713 973e e359 9dbd
00000050: 4d80 8b3e 3ec5 933e 3780 8a3e 7119 533d
00000060: 9c71 75bb 15f2 08be fcb8 4fbe 339e df3d
00000070: 09ae 0fbe d81e a93e 5cf0 b23e 9ab9 afbe
00000080: 92e5 5bbe dba4 a53d 723f 063e 9c33 bb3d
00000090: 4ecb 4dbc 547e ec3d 9e88 0d3e 9f3e e3bd
000000a0: a860 7fbe aed4 dc3d 08c4 33bd 6ed9 cd3e
000000b0: 42cd d63d a723 42be 868f 823e 712b 3d3e
000000c0: ca20 3cbe e5dd 5cbe a64d 38bd 58d0 733e
000000d0: df7f ff3c a0d1 a13d 4077 08be 1d32 38be
000000e0: de71 693e 3ab8 21be 6bdb 3fbe fe54 a53d
000000f0: 7205 843e ad7b 28be 5491 463e ec75 36be
00000100: 8793 1e3e 3761 993c 1f3c 113e 3d28 323e
00000110: a2bd 9dbd f8fe bbbd e3a0 1f3e 2300 2e3d
00000120: 5bcb 40be 4829 163d 8087 b23e 1331 873e
00000130: f7fa ae3e a9ce 203e 7042 e43d b30f 283e
00000140: a0ad 36bd ca4b 273e bced 313e cac9 8c3e
00000150: 173f e23e 79a3 2c3e 1bff 853e 8cb6 c0bc
00000160: f70b 983d df81 cfbd 8d3f 033d 7439 423e
00000170: de3f ffbb 118c 2e3e 6c98 453e 3294 febc

lstm.bias_hh_l0 f4 [96]
0.10731962 -0.11410922 0.2106318 -0.010397142 0.28934124 -0.24723998 0.116995394 0.24983285
-0.28722274 0.028903885 0.13460235 0.13644074 0.08141759 0.17722481 -0.04271053 0.3223171
-0.08622035 0.066973366 0.31850627 -0.36946735 0.26010013 0.27684435 0.061893813 0.09103643
0.21268117 -0.08022508 0.014280248 -0.0064501655 -0.101465546 0.46052444 0.11243603 -0.25931942
-0.07700471 0.021730289 -0.07715214 -0.10095496 0.021745563 0.41709426 0.083362915 0.11438612
-0.1402103 -0.11662406 -0.14125107 0.47685507 -0.15475534 -0.18717444 -0.12036688 0.057160083
-0.2199648 0.10869047 -0.09793009 0.24861589 0.1286078 -0.08190509 -0.24277002 -0.15689601
0.05837347 -0.076996334 -0.067544065 0.08929792 0.29029146 -0.039702557 -0.09849859 -0.051113542
0.096911974 -0.0031796002 0.06695585 -0.20083608 -0.011473545 -0.09589079 0.045949 -0.2215548
-0.11050625 0.18776353 0.2967572 0.03909874 0.17335969 -0.05004344 0.29202497 0.18548702
0.09853527 0.028259134 0.17482026 0.24339087 0.53849703 0.269027 0.26866817 0.0708628
0.17525603 -0.024841914 -0.04228105 -0.07216826 0.21528421 0.3560977 0.14878602 0.18501432
00000000: 64ca db3d 18b2 e9bd ddaf 573e c658 2abc
00000010: 8924 943e 7a2c 7dbe 489b ef3d 2fd4 7f3e
00000020: dc0e 93be d7c7 ec3c 33d5 093e 1fb7 0b3e
00000030: 44be a63d 6c7a 353e 3df1 2ebd bf06 a53e
00000040: 4b94 b0bd 5529 893d 4113 a33e d32a bdbe
00000050: d82b 853e 8bbe 8d3e 5e84 7d3d 4f71 ba3d
00000060: 18c9 593e 0c4d a4bd b4f7 693c e95b d3bb
00000070: 2bcd cfbd dcc9 eb3e dc44 e63d 84c5 84be
00000080: a5b4 9dbd b803 b23c f101 9ebd 79c1 cebd
00000090: c023 b23c 618d d53e 2dba aa3d 4543 ea3d
000000a0: 4a93 0fbe 98d8 eebd 1fa4 10be 5926 f43e
000000b0: 2f78 1ebe a8aa 3fbe e982 f6bd b120 6a3d
000000c0: 743e 61be 1c99 de3d 928f c8bd 2a95 7e3e
000000d0: c3b1 033e dbbd a7bd b498 78be 59a9 20be
000000e0: 0519 6f3d 41b0 9dbd 8b54 8abd d4e1 b63d
000000f0: 15a1 943e 269f 22bd a1b9 c9bd 6f5c 51bd
00000100: c979 c63d d760 50bb 2620 893d f9a7 4dbe
00000110: 89fb 3bbc 6462 c4bd 0535 3c3d 43df 62be
00000120: 1a51 e2bd 1545 403e 8ff0 973e 0026 203d
00000130: 3485 313e 5afa 4cbd 4c84 953e 4ff0 3d3e
00000140: dccc c93d b37f e73c 1504 333e 753b 793e
00000150: f1da 093f e8bd 893e e08e 893e 8420 913d
00000160: 5176 333e 4581 cbbc e52e 2dbd f4cc 93bd
00000170: 7773 5c3e 7052 b63e 5d5b 183e 6574 3d3e

fc1.weight f4 [2, 24]
0.03231992 -0.13048612 -0.044973645 0.17175023 0.12985578 0.042669524 -0.5237946 -0.13974129
-0.49999642 -0.11986023 0.39986804 -0.041232854 -0.03573563 -0.7790372 0.2211429 -0.22281624
-0.19455172 -0.10943442 0.3794651 0.08822736 -0.26468745 0.056140587 -0.2608421 0.05762148
-0.38304195 -0.030104559 0.43271345 -0.16475943 0.38747633 -0.42905298 -0.030408127 -0.55653447
-0.05826077 -0.2404729 -0.28841272 -0.280085 -0.25501364 0.063808195 -0.12190545 -0.012350162
0.24301928 -0.07809844 -0.027407441 0.111355335 -0.09640012 0.31425592 -0.19098735 0.14732091
00000000: e461 043d 279e 05be 4936 38bd 4bdf 2f3e
00000010: eaf8 043e 3dc6 2e3d 6717 06bf 5718 0fbe
00000020: 88ff ffbe 4879 f5bd 81bb cc3e c8e3 28bd
00000030: 865f 12bd fb6e 47bf 4973 623e f129 64be
00000040: 9138 47be 271f e0bd 4049 c23e 8cb0 b43d
00000050: 1d85 87be acf3 653d 198d 85be 8004 6c3d
00000060: 131e c4be d69d f6bc 9e8c dd3e b2b6 28be
00000070: 4c63 c63e d5ac dbbe 771a f9bc 0b79 0ebf
00000080: d8a2 6ebd 873e 76be d5aa 93be 4d67 8fbe
00000090: 2691 82be dfad 823d 91a9 f9bd 5558 4abc
000000a0: 0cda 783e 13f2 9fbd 9285 e0bc 440e e43d
000000b0: 6d6d c5bd 27e6 a03e 3092 43be 4bdb 163e

fc1.bias f4 [2]
-0.23499718 -0.056461632
00000000: 1aa3 70be 5044 67bd
